checkpoints/2023-01-14_18-32-15/slu_model.tflite (tflite, 84784 bytes, 17 tensors)

model/intent_output/MatMul i1 [6, 32] scale=0.0058970405 zero_point=0
000000 37 d6 c4 b9 e8 24 dc d2 a9 09 e2 d3 a2 d1 84 dd
       0.3243372 -0.2476757 -0.35382244 -0.41868988 -0.14152896 0.21229346 -0.21229346 -0.27126387 -0.5130425 0.053073365 -0.17691122 -0.26536682 -0.5543218 -0.2771609 -0.731233 -0.20639642
000010 dd 07 d8 41 36 54 fc 01 47 4a 16 c5 a1 c2 da cb
       -0.20639642 0.041279282 -0.23588163 0.38330764 0.3184402 0.4953514 -0.023588162 0.0058970405 0.41868988 0.43638098 0.12973489 -0.3479254 -0.5602189 -0.3656165 -0.22408754 -0.31254315
000020 23 29 48 e4 0c e3 1c ee d8 f6 3a aa e5 d7 da 41
       0.20639642 0.24177866 0.42458692 -0.16511713 0.07076448 -0.17101417 0.16511713 -0.10614673 -0.23588163 -0.058970407 0.34202835 -0.50714546 -0.1592201 -0.24177866 -0.22408754 0.38330764
000030 c3 05 ec 0c 1e 05 f9 c6 1d d4 fd b8 ee fc 12 12
       -0.35971946 0.029485203 -0.11794081 0.07076448 0.17691122 0.029485203 -0.041279282 -0.34202835 0.17101417 -0.25946978 -0.01769112 -0.42458692 -0.10614673 -0.023588162 0.10614673 0.10614673
000040 f5 b8 cb 43 ba ca 4c cf c5 eb 81 e3 e3 bb 9e 20
       -0.064867444 -0.42458692 -0.31254315 0.39510173 -0.41279283 -0.3184402 0.44817507 -0.28895497 -0.3479254 -0.12383785 -0.74892414 -0.17101417 -0.17101417 -0.4068958 -0.57790995 0.1887053
000050 18 d1 08 1c 34 d3 fe 0f 3d 44 14 0e d4 c0 c9 54
       0.14152896 -0.2771609 0.047176324 0.16511713 0.3066461 -0.26536682 -0.011794081 0.08845561 0.35971946 0.40099874 0.11794081 0.082558565 -0.25946978 -0.3774106 -0.3243372 0.4953514
000060 d0 2e df 23 cf e9 c2 f7 33 e3 f3 23 e8 07 34 db
       -0.28305793 0.27126387 -0.19460234 0.20639642 -0.28895497 -0.13563193 -0.3656165 -0.053073365 0.30074906 -0.17101417 -0.07666153 0.20639642 -0.14152896 0.041279282 0.3066461 -0.21819049
000070 fa ec dd de 1d 43 e5 f7 fa d3 23 c9 f6 00 38 0d
       -0.03538224 -0.11794081 -0.20639642 -0.20049937 0.17101417 0.39510173 -0.1592201 -0.053073365 -0.03538224 -0.26536682 0.20639642 -0.3243372 -0.058970407 0.0 0.33023426 0.07666153
000080 45 2f 40 f6 1a c6 21 d3 25 1e f1 ac f5 c8 eb cd
       0.4068958 0.2771609 0.3774106 -0.058970407 0.15332305 -0.34202835 0.19460234 -0.26536682 0.21819049 0.17691122 -0.08845561 -0.4953514 -0.064867444 -0.33023426 -0.12383785 -0.30074906
000090 0e f1 f8 f9 0a ff 13 ce 02 c7 03 f9 c9 07 c5 c2
       0.082558565 -0.08845561 -0.047176324 -0.041279282 0.058970407 -0.0058970405 0.11204377 -0.29485202 0.011794081 -0.3361313 0.01769112 -0.041279282 -0.3243372 0.041279282 -0.3479254 -0.3656165
0000a0 d6 30 d6 f2 dd 26 1e df c6 36 d2 26 e1 03 c9 fa
       -0.2476757 0.28305793 -0.2476757 -0.082558565 -0.20639642 0.22408754 0.17691122 -0.19460234 -0.34202835 0.3184402 -0.27126387 0.22408754 -0.18280825 0.01769112 -0.3243372 -0.03538224
0000b0 fb f9 bc e3 0e ea 0f fa fd f2 37 1c 14 25 0c d8
       -0.029485203 -0.041279282 -0.40099874 -0.17101417 0.082558565 -0.12973489 0.08845561 -0.03538224 -0.01769112 -0.082558565 0.3243372 0.16511713 0.11794081 0.21819049 0.07076448 -0.23588163

model/dense_1/MatMul i1 [34, 32] scale=0.0352253 zero_point=0
000000 fe f6 ff 0d f1 f3 fe fb eb fb ef ff ff f9 e7 0a
       -0.0704506 -0.352253 -0.0352253 0.45792887 -0.5283795 -0.45792887 -0.0704506 -0.1761265 -0.73973125 -0.1761265 -0.59883004 -0.0352253 -0.0352253 -0.24657708 -0.88063246 0.352253
000010 07 f5 fd fe 05 f0 f5 04 fd 05 fd 00 f0 fa fd ec
       0.24657708 -0.3874783 -0.10567589 -0.0704506 0.1761265 -0.5636048 -0.3874783 0.1409012 -0.10567589 0.1761265 -0.10567589 0.0 -0.5636048 -0.21135178 -0.10567589 -0.704506
000020 05 f7 f8 f2 fe 07 f4 f3 ee f6 ef f4 f7 f6 ef f2
       0.1761265 -0.3170277 -0.2818024 -0.49315417 -0.0704506 0.24657708 -0.42270356 -0.45792887 -0.6340554 -0.352253 -0.59883004 -0.42270356 -0.3170277 -0.352253 -0.59883004 -0.49315417
000030 00 fb f7 07 09 fd f8 03 f8 04 0d ee fb fd 00 f5
       0.0 -0.1761265 -0.3170277 0.24657708 0.3170277 -0.10567589 -0.2818024 0.10567589 -0.2818024 0.1409012 0.45792887 -0.6340554 -0.1761265 -0.10567589 0.0 -0.3874783
000040 f8 f5 fe f7 e9 f0 e6 fc f5 ed eb 02 fe f5 eb 06
       -0.2818024 -0.3874783 -0.0704506 -0.3170277 -0.81018186 -0.5636048 -0.91585773 -0.1409012 -0.3874783 -0.66928065 -0.73973125 0.0704506 -0.0704506 -0.3874783 -0.73973125 0.21135178
000050 f7 f4 ec fc 08 f1 f6 0a fd 09 fc 10 f6 f8 fe 0d
       -0.3170277 -0.42270356 -0.704506 -0.1409012 0.2818024 -0.5283795 -0.352253 0.352253 -0.10567589 0.3170277 -0.1409012 0.5636048 -0.352253 -0.2818024 -0.0704506 0.45792887
000060 f5 db ff fe fc c6 fd fc ee fd fa fe d2 00 e1 ed
       -0.3874783 -1.303336 -0.0352253 -0.0704506 -0.1409012 -2.0430672 -0.10567589 -0.1409012 -0.6340554 -0.10567589 -0.21135178 -0.0704506 -1.6203637 0.0 -1.0919843 -0.66928065
000070 f2 cb 07 06 f1 02 fa fa e0 02 01 e2 fa e9 fb d5
       -0.49315417 -1.8669409 0.24657708 0.21135178 -0.5283795 0.0704506 -0.21135178 -0.21135178 -1.1272095 0.0704506 0.0352253 -1.056759 -0.21135178 -0.81018186 -0.1761265 -1.5146878
000080 08 ec f8 f7 e5 04 f2 f8 f9 f8 f8 ee fc fd ea f2
       0.2818024 -0.704506 -0.2818024 -0.3170277 -0.95108306 0.1409012 -0.49315417 -0.2818024 -0.24657708 -0.2818024 -0.2818024 -0.6340554 -0.1409012 -0.10567589 -0.7749566 -0.49315417
000090 f2 00 f8 ff fc 01 00 04 03 08 07 03 f9 f7 fd f6
       -0.49315417 0.0 -0.2818024 -0.0352253 -0.1409012 0.0352253 0.0 0.1409012 0.10567589 0.2818024 0.24657708 0.10567589 -0.24657708 -0.3170277 -0.10567589 -0.352253
0000a0 07 fd 12 00 f5 fa fe f6 ef 02 f9 fb 07 02 ff 01
       0.24657708 -0.10567589 0.6340554 0.0 -0.3874783 -0.21135178 -0.0704506 -0.352253 -0.59883004 0.0704506 -0.24657708 -0.1761265 0.24657708 0.0704506 -0.0352253 0.0352253
0000b0 fb 01 ff f9 ef fc f9 06 ef f0 fb 05 01 f9 06 01
       -0.1761265 0.0352253 -0.0352253 -0.24657708 -0.59883004 -0.1409012 -0.24657708 0.21135178 -0.59883004 -0.5636048 -0.1761265 0.1761265 0.0352253 -0.24657708 0.21135178 0.0352253
0000c0 f1 e3 ed fc fa d3 f3 01 f7 07 f6 f0 e5 04 ef f1
       -0.5283795 -1.0215336 -0.66928065 -0.1409012 -0.21135178 -1.5851384 -0.45792887 0.0352253 -0.3170277 0.24657708 -0.352253 -0.5636048 -0.95108306 0.1409012 -0.59883004 -0.5283795
0000d0 ec af 02 04 fb f7 fd fc e5 f7 f3 e3 03 e7 f6 e6
       -0.704506 -2.853249 0.0704506 0.1409012 -0.1761265 -0.3170277 -0.10567589 -0.1409012 -0.95108306 -0.3170277 -0.45792887 -1.0215336 0.10567589 -0.88063246 -0.352253 -0.91585773
0000e0 fd f1 f6 07 f2 ee fb fb ec f8 e6 fe f4 01 e4 fc
       -0.10567589 -0.5283795 -0.352253 0.24657708 -0.49315417 -0.6340554 -0.1761265 -0.1761265 -0.704506 -0.2818024 -0.91585773 -0.0704506 -0.42270356 0.0352253 -0.98630834 -0.1409012
0000f0 07 08 f8 04 00 fa fe 05 08 04 fe fb f4 fe ff 04
       0.24657708 0.2818024 -0.2818024 0.1409012 0.0 -0.21135178 -0.0704506 0.1761265 0.2818024 0.1409012 -0.0704506 -0.1761265 -0.42270356 -0.0704506 -0.0352253 0.1409012

model/dense/MatMul1 i1 [32, 32] scale=0.009000484 zero_point=0
000000 f3 1c 33 d4 20 da 3a 23 25 41 29 0c 02 fa f1 16
       -0.11700629 0.25201356 0.45902467 -0.3960213 0.28801548 -0.3420184 0.5220281 0.31501693 0.33301792 0.58503145 0.36901984 0.10800581 0.018000968 -0.054002903 -0.13500726 0.19801065
000010 f7 1e 1b f9 24 19 24 1e f7 06 ed f2 36 f7 ed 0e
       -0.08100435 0.27001452 0.24301307 -0.06300339 0.3240174 0.2250121 0.3240174 0.27001452 -0.08100435 0.054002903 -0.1710092 -0.12600678 0.48602614 -0.08100435 -0.1710092 0.12600678
000020 22 bb 08 fe 00 01 b0 ca ec f5 27 ed 22 2a 22 ec
       0.30601645 -0.6210334 0.07200387 -0.018000968 0.0 0.009000484 -0.7200387 -0.48602614 -0.18000968 -0.09900533 0.35101888 -0.1710092 0.30601645 0.37802032 0.30601645 -0.18000968
000030 2d 23 de d9 05 e8 e1 ee 09 f0 04 e5 11 1a 0d 14
       0.4050218 0.31501693 -0.30601645 -0.35101888 0.04500242 -0.21601161 -0.279015 -0.1620087 0.08100435 -0.14400774 0.036001936 -0.24301307 0.15300822 0.23401257 0.11700629 0.18000968
000040 04 de 25 cf ef e2 0b f5 fa 2e 02 12 1a 25 2e e3
       0.036001936 -0.30601645 0.33301792 -0.4410237 -0.15300822 -0.27001452 0.09900533 -0.09900533 -0.054002903 0.41402227 0.018000968 0.1620087 0.23401257 0.33301792 0.41402227 -0.26101404
000050 0b ff 33 21 00 1a 2d 21 07 fa e0 c5 1b 12 25 01
       0.09900533 -0.009000484 0.45902467 0.29701596 0.0 0.23401257 0.4050218 0.29701596 0.06300339 -0.054002903 -0.28801548 -0.53102857 0.24301307 0.1620087 0.33301792 0.009000484
000060 12 f2 18 3e e7 09 15 08 32 dc ec d6 17 fa d7 06
       0.1620087 -0.12600678 0.21601161 0.55803 -0.2250121 0.08100435 0.18901016 0.07200387 0.4500242 -0.3240174 -0.18000968 -0.37802032 0.20701113 -0.054002903 -0.36901984 0.054002903
000070 19 06 eb 10 15 f7 dd 29 30 d3 db fd 1f e6 ec e5
       0.2250121 0.054002903 -0.18901016 0.14400774 0.18901016 -0.08100435 -0.31501693 0.36901984 0.43202323 -0.4050218 -0.33301792 -0.027001452 0.279015 -0.23401257 -0.18000968 -0.24301307
000080 f6 d9 e3 10 f8 f0 e2 c6 06 10 27 f8 01 d8 fa ed
       -0.09000484 -0.35101888 -0.26101404 0.14400774 -0.07200387 -0.14400774 -0.27001452 -0.5220281 0.054002903 0.14400774 0.35101888 -0.07200387 0.009000484 -0.36001936 -0.054002903 -0.1710092
000090 f6 0b fa de 08 f8 1e 0d 08 03 db e0 23 f2 d7 f6
       -0.09000484 0.09900533 -0.054002903 -0.30601645 0.07200387 -0.07200387 0.27001452 0.11700629 0.07200387 0.027001452 -0.33301792 -0.28801548 0.31501693 -0.12600678 -0.36901984 -0.09000484
0000a0 24 36 03 d7 02 19 f2 d8 1b 0f 1a 1e fe fb 0a 16
       0.3240174 0.48602614 0.027001452 -0.36901984 0.018000968 0.2250121 -0.12600678 -0.36001936 0.24301307 0.13500726 0.23401257 0.27001452 -0.018000968 -0.04500242 0.09000484 0.19801065
0000b0 f3 19 e7 e6 07 ea 13 ff df 43 fd 10 eb f7 fd 2f
       -0.11700629 0.2250121 -0.2250121 -0.23401257 0.06300339 -0.19801065 0.1710092 -0.009000484 -0.29701596 0.6030324 -0.027001452 0.14400774 -0.18901016 -0.08100435 -0.027001452 0.42302275
0000c0 e7 00 e7 dd c1 1d f1 f9 17 e3 0d f0 04 15 c5 fa
       -0.2250121 0.0 -0.2250121 -0.31501693 -0.5670305 0.26101404 -0.13500726 -0.06300339 0.20701113 -0.26101404 0.11700629 -0.14400774 0.036001936 0.18901016 -0.53102857 -0.054002903
0000d0 0e dc d9 15 3c 04 13 2c 05 e2 0e 0b f4 03 01 f3
       0.12600678 -0.3240174 -0.35101888 0.18901016 0.54002905 0.036001936 0.1710092 0.3960213 0.04500242 -0.27001452 0.12600678 0.09900533 -0.10800581 0.027001452 0.009000484 -0.11700629
0000e0 dc d0 29 0f 15 12 f4 ba ef ef 0a f8 07 fb 03 fa
       -0.3240174 -0.43202323 0.36901984 0.13500726 0.18901016 0.1620087 -0.10800581 -0.63003385 -0.15300822 -0.15300822 0.09000484 -0.07200387 0.06300339 -0.04500242 0.027001452 -0.054002903
0000f0 fb 0a f7 d9 04 b4 cd ff fb d9 25 17 f5 ac fc f3
       -0.04500242 0.09000484 -0.08100435 -0.35101888 0.036001936 -0.6840368 -0.45902467 -0.009000484 -0.04500242 -0.35101888 0.33301792 0.20701113 -0.09900533 -0.75604063 -0.036001936 -0.11700629

model/conv2d_13/Conv2D i1 [32, 3, 3, 32]
000000 b3 ca 19 25 dc 5e 33 bd bf 1f dc ed 0d 04 ed 17
       -77 -54 25 37 -36 94 51 -67 -65 31 -36 -19 13 4 -19 23
000010 9f 79 36 cc 7f 0b 9c ad bb 2e e7 3c fc 1e 27 2a
       -97 121 54 -52 127 11 -100 -83 -69 46 -25 60 -4 30 39 42
000020 f7 c5 2a fd ea 04 1f eb fb ed d1 e7 05 e7 17 e2
       -9 -59 42 -3 -22 4 31 -21 -5 -19 -47 -25 5 -25 23 -30
000030 df 46 fd c2 44 d2 ff f9 e7 01 e8 1f be df 29 9f
       -33 70 -3 -62 68 -46 -1 -7 -25 1 -24 31 -66 -33 41 -97
000040 eb db 14 e4 f7 1d e8 a8 ce 0b de 0d f5 2d da e0
       -21 -37 20 -28 -9 29 -24 -88 -50 11 -34 13 -11 45 -38 -32
000050 23 20 48 20 13 cb 01 0b 07 f9 ff 2a d6 ab 20 fb
       35 32 72 32 19 -53 1 11 7 -7 -1 42 -42 -85 32 -5
000060 e7 dd 0d e2 d8 20 07 ba e1 f3 00 ec 06 f7 1d be
       -25 -35 13 -30 -40 32 7 -70 -31 -13 0 -20 6 -9 29 -66
000070 fa 73 02 99 fd 0b c6 e3 0d 19 ba 4b 08 32 4b ff
       -6 115 2 -103 -3 11 -58 -29 13 25 -70 75 8 50 75 -1
000080 15 e9 eb e4 c0 2a 05 d7 00 e0 09 f9 e6 fa 0e 1a
       21 -23 -21 -28 -64 42 5 -41 0 -32 9 -7 -26 -6 14 26
000090 f9 18 21 fd 33 f5 01 36 12 d1 fe 0f ae df 20 06
       -7 24 33 -3 51 -11 1 54 18 -47 -2 15 -82 -33 32 6
0000a0 eb d0 f4 f0 c7 29 00 bf cb 0b 03 ff 0d 21 00 bd
       -21 -48 -12 -16 -57 41 0 -65 -53 11 3 -1 13 33 0 -67
0000b0 04 02 3b e3 d6 e2 e9 15 23 d7 f4 1b cd cc 12 dd
       4 2 59 -29 -42 -30 -23 21 35 -41 -12 27 -51 -52 18 -35
0000c0 cb 05 03 43 15 14 dc e8 35 ed 1a d6 f8 db c9 e0
       -53 5 3 67 21 20 -36 -24 53 -19 26 -42 -8 -37 -55 -32
0000d0 df 36 27 e8 63 18 df 2d 41 2e fb ff e7 ff e1 c3
       -33 54 39 -24 99 24 -33 45 65 46 -5 -1 -25 -1 -31 -61
0000e0 08 ed ef fb ed ec 23 ad c5 fb cf 0e 12 2e fa 20
       8 -19 -17 -5 -19 -20 35 -83 -59 -5 -49 14 18 46 -6 32
0000f0 f0 50 0e 0a fc e2 f6 0c 02 1c ff 5d fb 48 20 0c
       -16 80 14 10 -4 -30 -10 12 2 28 -1 93 -5 72 32 12

model/conv2d_12/Conv2D i1 [32, 3, 3, 32]
000000 db c5 3a f1 ab b2 ef ca 36 2d a7 e4 e4 f6 cc 46
       -37 -59 58 -15 -85 -78 -17 -54 54 45 -89 -28 -28 -10 -52 70
000010 81 13 53 86 03 f2 95 0b 01 df 0a 31 cb ea eb c9
       -127 19 83 -122 3 -14 -107 11 1 -33 10 49 -53 -22 -21 -55
000020 1d 0e eb 25 26 f0 fb ef 1d e1 d8 03 9a ed f9 a4
       29 14 -21 37 38 -16 -5 -17 29 -31 -40 3 -102 -19 -7 -92
000030 d7 c8 39 36 d9 d0 26 fa e0 fd ee 5c f2 06 c3 d7
       -41 -56 57 54 -39 -48 38 -6 -32 -3 -18 92 -14 6 -61 -41
000040 c9 1b f9 23 1a 20 d3 ee 36 01 ff 20 f1 e4 3c 07
       -55 27 -7 35 26 32 -45 -18 54 1 -1 32 -15 -28 60 7
000050 0c c2 07 0d 70 c5 9f 30 1b 17 d9 03 15 e2 cf 0e
       12 -62 7 13 112 -59 -97 48 27 23 -39 3 21 -30 -49 14
000060 f3 c0 fd da fb d9 12 f2 41 1c a5 35 dd 1a 07 36
       -13 -64 -3 -38 -5 -39 18 -14 65 28 -91 53 -35 26 7 54
000070 a2 12 1f 0d 0c d7 20 37 bf f3 17 26 08 c2 e9 0a
       -94 18 31 13 12 -41 32 55 -65 -13 23 38 8 -62 -23 10
000080 0b 22 c5 0d 2a 1c 27 e4 36 bd 1c 11 b1 3d be e9
       11 34 -59 13 42 28 39 -28 54 -67 28 17 -79 61 -66 -23
000090 d0 d1 21 fe 18 4a 0e e4 dd f5 0c 33 37 12 db e0
       -48 -47 33 -2 24 74 14 -28 -35 -11 12 51 55 18 -37 -32
0000a0 ea 0d e6 1d f8 f5 f2 9e 3a 40 e7 03 09 33 1a c4
       -22 13 -26 29 -8 -11 -14 -98 58 64 -25 3 9 51 26 -60
0000b0 00 a6 08 c1 63 0f 03 b4 e4 15 f3 d9 05 e3 a3 52
       0 -90 8 -63 99 15 3 -76 -28 21 -13 -39 5 -29 -93 82
0000c0 b1 09 ed bd 3e c1 f1 d8 f1 06 83 07 94 2f fb 28
       -79 9 -19 -67 62 -63 -15 -40 -15 6 -125 7 -108 47 -5 40
0000d0 ee c0 0a f7 06 06 38 76 a3 ea e9 45 fd 47 09 17
       -18 -64 10 -9 6 6 56 118 -93 -22 -23 69 -3 71 9 23
0000e0 de e3 10 38 0f dc 3d d7 ee fa 14 0b 9d f2 b2 37
       -34 -29 16 56 15 -36 61 -41 -18 -6 20 11 -99 -14 -78 55
0000f0 e4 f1 3d f4 e9 fc 07 12 d7 e0 44 60 e1 0a f5 c4
       -28 -15 61 -12 -23 -4 7 18 -41 -32 68 96 -31 10 -11 -60

model/conv2d_11/Conv2D i1 [32, 3, 3, 32]
000000 cc 1c 28 15 f8 23 c1 2e e5 e8 20 3d 41 f3 1b 10
       -52 28 40 21 -8 35 -63 46 -27 -24 32 61 65 -13 27 16
000010 f9 cb 99 2a 22 11 0d 1d 08 45 10 16 e8 13 29 37
       -7 -53 -103 42 34 17 13 29 8 69 16 22 -24 19 41 55
000020 4e 1f cb 0b f1 08 ff 03 0f 0e f3 7a 2b fb 0d f8
       78 31 -53 11 -15 8 -1 3 15 14 -13 122 43 -5 13 -8
000030 f9 d9 29 08 01 0a 14 1f ec d6 39 b6 fd 53 0a fc
       -7 -39 41 8 1 10 20 31 -20 -42 57 -74 -3 83 10 -4
000040 17 e4 d2 07 dd f8 0c a9 f0 29 ff 16 4d 1a 39 13
       23 -28 -46 7 -35 -8 12 -87 -16 41 -1 22 77 26 57 19
000050 27 e9 30 ae f1 30 5b b5 f0 e6 13 01 b8 f7 d7 fd
       39 -23 48 -82 -15 48 91 -75 -16 -26 19 1 -72 -9 -41 -3
000060 10 02 0d 15 d8 ec c7 2c ce ca fa fa c5 cc 31 0f
       16 2 13 21 -40 -20 -57 44 -50 -54 -6 -6 -59 -52 49 15
000070 16 f1 fe 0b 0b fd f8 19 f7 02 fb d8 e7 0b fd 1b
       22 -15 -2 11 11 -3 -8 25 -9 2 -5 -40 -25 11 -3 27
000080 f7 fe ef 16 f7 eb d6 c2 e9 eb 07 d5 0b f5 ed 0b
       -9 -2 -17 22 -9 -21 -42 -62 -23 -21 7 -43 11 -11 -19 11
000090 16 ed 02 f5 01 41 0b f8 f2 ec 18 f5 05 34 fb f7
       22 -19 2 -11 1 65 11 -8 -14 -20 24 -11 5 52 -5 -9
0000a0 26 04 ea f2 81 04 08 c9 e7 fd e8 1a 15 fc e9 04
       38 4 -22 -14 -127 4 8 -55 -25 -3 -24 26 21 -4 -23 4
0000b0 13 0d 05 11 fc f4 1d e2 12 da 22 fd e1 09 f5 c2
       19 13 5 17 -4 -12 29 -30 18 -38 34 -3 -31 9 -11 -62
0000c0 97 de 35 fc d1 dc b0 26 0a e9 aa f6 de da c2 e4
       -105 -34 53 -4 -47 -36 -80 38 10 -23 -86 -10 -34 -38 -62 -28
0000d0 06 08 28 ec fb 03 2c 08 e4 e4 e8 16 01 16 fe f2
       6 8 40 -20 -5 3 44 8 -28 -28 -24 22 1 22 -2 -14
0000e0 1d f7 2e 17 c0 f2 cd a6 cd f8 fc e0 2d 01 fe 16
       29 -9 46 23 -64 -14 -51 -90 -51 -8 -4 -32 45 1 -2 22
0000f0 27 fb 09 21 02 ed 06 d1 44 fd 08 0f e2 16 26 e1
       39 -5 9 33 2 -19 6 -47 68 -3 8 15 -30 22 38 -31

model/conv2d_10/Conv2D i1 [32, 3, 3, 32]
000000 eb de d5 e6 08 2e ee 0f 5b ea f9 c2 c6 f8 4c f7
       -21 -34 -43 -26 8 46 -18 15 91 -22 -7 -62 -58 -8 76 -9
000010 dc 31 d6 f6 eb fe ab d4 e9 cc 5b 1e 01 fd 17 ef
       -36 49 -42 -10 -21 -2 -85 -44 -23 -52 91 30 1 -3 23 -17
000020 dd 6e e5 10 1e fa fd ce fb c2 2a c1 19 20 23 e5
       -35 110 -27 16 30 -6 -3 -50 -5 -62 42 -63 25 32 35 -27
000030 dd e8 45 54 c5 2a d8 ea 23 d2 f2 1a a8 14 3b 7f
       -35 -24 69 84 -59 42 -40 -22 35 -46 -14 26 -88 20 59 127
000040 d5 14 a5 10 e1 19 eb ae e0 f9 16 1c 02 e2 f7 fb
       -43 20 -91 16 -31 25 -21 -82 -32 -7 22 28 2 -30 -9 -5
000050 a4 d6 f9 d2 08 c6 48 db e5 24 ca e8 f4 01 24 0a
       -92 -42 -7 -46 8 -58 72 -37 -27 36 -54 -24 -12 1 36 10
000060 e5 0f ce 09 36 ce e4 e3 26 03 1b b0 14 fb fe c6
       -27 15 -50 9 54 -50 -28 -29 38 3 27 -80 20 -5 -2 -58
000070 dc 27 fc ed ea f0 b7 dd f8 d1 26 04 f6 37 2e cf
       -36 39 -4 -19 -22 -16 -73 -35 -8 -47 38 4 -10 55 46 -49
000080 d3 2b c2 d7 fc e2 e7 85 f2 08 03 02 2f 28 13 3d
       -45 43 -62 -41 -4 -30 -25 -123 -14 8 3 2 47 40 19 61
000090 0f 10 f0 fa e5 17 04 c7 fe d2 13 b8 e8 35 db 34
       15 16 -16 -6 -27 23 4 -57 -2 -46 19 -72 -24 53 -37 52
0000a0 08 e6 f6 00 f2 1f 13 1a e5 2e ef 3e 14 ed e5 fc
       8 -26 -10 0 -14 31 19 26 -27 46 -17 62 20 -19 -27 -4
0000b0 23 10 ce 1c 1d 02 d0 ef 0b ef df 16 02 0e f4 09
       35 16 -50 28 29 2 -48 -17 11 -17 -33 22 2 14 -12 9
0000c0 b6 13 e1 ea 16 d5 de 1a f5 2b f3 fe 8c f3 fb 1d
       -74 19 -31 -22 22 -43 -34 26 -11 43 -13 -2 -116 -13 -5 29
0000d0 ec 09 d1 db 00 cb fc fb d5 ec c1 b7 e2 1f d6 fc
       -20 9 -47 -37 0 -53 -4 -5 -43 -20 -63 -73 -30 31 -42 -4
0000e0 c9 0c e2 e3 ef fa 23 c5 d7 d9 0a 53 3c f0 33 05
       -55 12 -30 -29 -17 -6 35 -59 -41 -39 10 83 60 -16 51 5
0000f0 c9 eb 04 0f a6 e8 05 c3 df fc 20 cf fd 1e 16 06
       -55 -21 4 15 -90 -24 5 -61 -33 -4 32 -49 -3 30 22 6

model/conv2d_9/Conv2D i1 [32, 1, 1, 16]
000000 ff 89 e7 48 23 0a a2 12 42 1f 40 7f a7 1a e6 38
       -1 -119 -25 72 35 10 -94 18 66 31 64 127 -89 26 -26 56
000010 b2 cc f4 3d ff ef c5 b6 19 7f fa 43 14 bc 88 c4
       -78 -52 -12 61 -1 -17 -59 -74 25 127 -6 67 20 -68 -120 -60
000020 b7 b9 e2 68 9e 81 b1 1b ff 06 c8 fd d8 0f 56 31
       -73 -71 -30 104 -98 -127 -79 27 -1 6 -56 -3 -40 15 86 49
000030 17 8a 43 51 12 a2 04 c7 ab f6 1f bf 0e a0 81 f8
       23 -118 67 81 18 -94 4 -57 -85 -10 31 -65 14 -96 -127 -8
000040 d7 a5 9a 05 81 42 ef 99 0a 1e 86 a7 09 e6 e6 1e
       -41 -91 -102 5 -127 66 -17 -103 10 30 -122 -89 9 -26 -26 30
000050 ca e4 1f f3 ca ee 0d 02 81 e8 cb 37 ff e8 af 41
       -54 -28 31 -13 -54 -18 13 2 -127 -24 -53 55 -1 -24 -81 65
000060 0c 81 cc d1 ea 1a 2f 84 f7 4a 8a f4 10 92 c5 09
       12 -127 -52 -47 -22 26 47 -124 -9 74 -118 -12 16 -110 -59 9
000070 02 09 c5 e6 de c6 cb cf f7 ea a7 fb c7 d7 f0 81
       2 9 -59 -26 -34 -58 -53 -49 -9 -22 -89 -5 -57 -41 -16 -127
000080 3a 4d b3 d4 0f 81 e5 89 d8 02 a4 15 21 a9 19 fc
       58 77 -77 -44 15 -127 -27 -119 -40 2 -92 21 33 -87 25 -4
000090 81 20 a5 07 a1 b3 eb df ed 41 b5 29 e5 cc ff 02
       -127 32 -91 7 -95 -77 -21 -33 -19 65 -75 41 -27 -52 -1 2
0000a0 d3 81 cb e6 df b1 da 47 12 1a f6 89 f8 52 41 fa
       -45 -127 -53 -26 -33 -79 -38 71 18 26 -10 -119 -8 82 65 -6
0000b0 7c e2 d1 00 12 e9 52 9f f0 81 39 8c 48 dc a4 fc
       124 -30 -47 0 18 -23 82 -97 -16 -127 57 -116 72 -36 -92 -4
0000c0 ec 85 89 51 ea 3c 6c 08 2b b0 0e c1 cc 06 81 d4
       -20 -123 -119 81 -22 60 108 8 43 -80 14 -63 -52 6 -127 -44
0000d0 2e 40 12 b8 e8 c1 bb c2 49 2d bd 13 de be 81 3c
       46 64 18 -72 -24 -63 -69 -62 73 45 -67 19 -34 -66 -127 60
0000e0 81 fb 1d 37 bf f2 e4 d7 60 55 b9 9f a3 c3 be e8
       -127 -5 29 55 -65 -14 -28 -41 96 85 -71 -97 -93 -61 -66 -24
0000f0 09 d7 db ef 1d 4e 0a 1c b1 49 c0 81 22 02 eb f5
       9 -41 -37 -17 29 78 10 28 -79 73 -64 -127 34 2 -21 -11

model/conv2d_8/Conv2D i1 [32, 3, 3, 32]
000000 12 e0 c7 4b 0b de 2d e3 20 12 0d 1a f4 bc e3 fb
       18 -32 -57 75 11 -34 45 -29 32 18 13 26 -12 -68 -29 -5
000010 cd 03 02 14 f0 fa f4 24 27 d7 f9 ca 22 df cf 0f
       -51 3 2 20 -16 -6 -12 36 39 -41 -7 -54 34 -33 -49 15
000020 16 08 06 e1 df 1c 47 f7 12 1f 04 02 2d 1c 2a 9b
       22 8 6 -31 -33 28 71 -9 18 31 4 2 45 28 42 -101
000030 29 d5 ff 07 e2 1d dc 30 d6 06 33 0c fc df 1d d8
       41 -43 -1 7 -30 29 -36 48 -42 6 51 12 -4 -33 29 -40
000040 81 f5 d4 f6 fe ca 0d 04 ca 14 f7 dc fb f7 13 1d
       -127 -11 -44 -10 -2 -54 13 4 -54 20 -9 -36 -5 -9 19 29
000050 20 f9 e4 0e f6 ea da e2 23 e0 f0 0b c6 e1 7d f3
       32 -7 -28 14 -10 -22 -38 -30 35 -32 -16 11 -58 -31 125 -13
000060 fd 0a d2 00 18 03 11 ed 33 1b d9 e9 11 05 0f 03
       -3 10 -46 0 24 3 17 -19 51 27 -39 -23 17 5 15 3
000070 44 ea 1e e1 1a ce f1 aa fd 12 20 d9 f6 25 d8 ee
       68 -22 30 -31 26 -50 -15 -86 -3 18 32 -39 -10 37 -40 -18
000080 f2 fb f6 fc f1 1a 1f 0a d3 e9 02 e1 1a 24 d4 f7
       -14 -5 -10 -4 -15 26 31 10 -45 -23 2 -31 26 36 -44 -9
000090 17 16 d9 e2 3a ff ee ef e9 18 d4 20 05 2c 1d f6
       23 22 -39 -30 58 -1 -18 -17 -23 24 -44 32 5 44 29 -10
0000a0 02 f5 e1 0d b7 e8 07 0f 36 e8 25 ed e7 e7 ef 25
       2 -11 -31 13 -73 -24 7 15 54 -24 37 -19 -25 -25 -17 37
0000b0 f7 10 00 22 f8 10 fa e7 16 d2 d9 10 f1 d0 df 00
       -9 16 0 34 -8 16 -6 -25 22 -46 -39 16 -15 -48 -33 0
0000c0 ec 05 e7 d3 f0 1e 03 e9 12 fa e0 c7 35 02 e5 cc
       -20 5 -25 -45 -16 30 3 -23 18 -6 -32 -57 53 2 -27 -52
0000d0 1a 33 2b 36 ef 97 08 cc 1c 25 1e 26 ff 00 15 05
       26 51 43 54 -17 -105 8 -52 28 37 30 38 -1 0 21 5
0000e0 21 fd ff fd 02 f9 ef 0e fb 03 20 17 c8 3e d2 fe
       33 -3 -1 -3 2 -7 -17 14 -5 3 32 23 -56 62 -46 -2
0000f0 ee 07 05 b5 16 35 ec 0e da e9 98 10 f1 f4 1c 16
       -18 7 5 -75 22 53 -20 14 -38 -23 -104 16 -15 -12 28 22

model/conv2d_7/Conv2D i1 [32, 3, 3, 16]
000000 3b 48 01 08 ee 17 4b d6 e6 02 ee 96 fc b7 bc a5
       59 72 1 8 -18 23 75 -42 -26 2 -18 -106 -4 -73 -68 -91
000010 26 30 8c e4 c8 fb 1f 01 14 d8 3d e9 60 4a d8 5b
       38 48 -116 -28 -56 -5 31 1 20 -40 61 -23 96 74 -40 91
000020 1f 09 d6 f0 d3 35 2a b2 d4 11 54 c7 21 42 17 ff
       31 9 -42 -16 -45 53 42 -78 -44 17 84 -57 33 66 23 -1
000030 f0 1e c8 ee fd fb 64 fa ac 3c fe db 81 c7 2a c7
       -16 30 -56 -18 -3 -5 100 -6 -84 60 -2 -37 -127 -57 42 -57
000040 c2 1e b2 db 0d 19 34 33 f1 ab 52 99 2a ee 00 0b
       -62 30 -78 -37 13 25 52 51 -15 -85 82 -103 42 -18 0 11
000050 f7 1a ba f1 0b 25 46 df b2 0a 2b eb 18 f0 05 f1
       -9 26 -70 -15 11 37 70 -33 -78 10 43 -21 24 -16 5 -15
000060 01 f5 02 14 10 e1 4c 3a 11 37 17 07 b5 e2 e7 c7
       1 -11 2 20 16 -31 76 58 17 55 23 7 -75 -30 -25 -57
000070 0a 2b d1 ee 0a f8 16 32 e5 bd 39 e9 fc 2b 37 cb
       10 43 -47 -18 10 -8 22 50 -27 -67 57 -23 -4 43 55 -53
000080 b8 41 09 35 15 14 18 d1 e5 03 04 3a e6 0e 5a 0a
       -72 65 9 53 21 20 24 -47 -27 3 4 58 -26 14 90 10
000090 2a b7 1b 0c 01 c4 16 ff c1 17 e9 f6 14 fe df ee
       42 -73 27 12 1 -60 22 -1 -63 23 -23 -10 20 -2 -33 -18
0000a0 04 ec 05 7f e7 1f e8 0b 33 e4 5a 49 dd 32 1e 02
       4 -20 5 127 -25 31 -24 11 51 -28 90 73 -35 50 30 2
0000b0 0b f2 fb ff bd f7 ac 03 63 14 f8 29 0c 4d 43 f8
       11 -14 -5 -1 -67 -9 -84 3 99 20 -8 41 12 77 67 -8
0000c0 07 ed e7 e7 45 1f f2 4e ae cf fb 18 f3 12 fb c7
       7 -19 -25 -25 69 31 -14 78 -82 -49 -5 24 -13 18 -5 -57
0000d0 18 0f d1 16 fe 3c fc 26 de 06 34 d2 10 3d 0c ef
       24 15 -47 22 -2 60 -4 38 -34 6 52 -46 16 61 12 -17
0000e0 f4 2f e7 f3 fa d0 02 f2 3b 48 d4 00 ef f5 26 e2
       -12 47 -25 -13 -6 -48 2 -14 59 72 -44 0 -17 -11 38 -30
0000f0 fb 12 f0 dd 4e 0e c5 3f 21 eb 09 04 e8 11 07 f1
       -5 18 -16 -35 78 14 -59 63 33 -21 9 4 -24 17 7 -15

model/conv2d_6/Conv2D i1 [16, 3, 3, 16]
000000 ba 2e da 3b 28 ba 19 ef c6 e0 e4 f5 ed d1 f7 e9
       -70 46 -38 59 40 -70 25 -17 -58 -32 -28 -11 -19 -47 -9 -23
000010 f2 c8 ec f1 eb c1 da fd d1 c9 d5 fe 1f db ea 17
       -14 -56 -20 -15 -21 -63 -38 -3 -47 -55 -43 -2 31 -37 -22 23
000020 1f f7 35 f1 03 e2 bc 02 1c 19 df fb f0 c3 1b 2b
       31 -9 53 -15 3 -30 -68 2 28 25 -33 -5 -16 -61 27 43
000030 8e 30 c3 f1 10 ed 42 8e da 0f e8 e6 ec bb ef 16
       -114 48 -61 -15 16 -19 66 -114 -38 15 -24 -26 -20 -69 -17 22
000040 1f 0a dd d4 fe ae d0 f0 e1 02 1c f8 d6 fc db 25
       31 10 -35 -44 -2 -82 -48 -16 -31 2 28 -8 -42 -4 -37 37
000050 11 e7 ee c5 1a fd f7 11 01 12 11 e4 0b 03 3a 1b
       17 -25 -18 -59 26 -3 -9 17 1 18 17 -28 11 3 58 27
000060 fb 1a f6 0a fa f6 46 81 eb 04 fd c8 0e 2b 0a 09
       -5 26 -10 10 -6 -10 70 -127 -21 4 -3 -56 14 43 10 9
000070 fe f3 07 9d 13 03 eb e2 d1 12 f1 fb e9 e1 07 36
       -2 -13 7 -99 19 3 -21 -30 -47 18 -15 -5 -23 -31 7 54
000080 01 0f e4 ce 19 27 fa 13 d7 2f dd be 37 1b 45 03
       1 15 -28 -50 25 39 -6 19 -41 47 -35 -66 55 27 69 3
000090 a4 1f ed ba 2f a1 a2 2b 24 0d 6c 07 ba ca 2d ff
       -92 31 -19 -70 47 -95 -94 43 36 13 108 7 -70 -54 45 -1
0000a0 2f 4f 99 e3 c3 1a 26 0b e7 41 e5 df db 16 28 42
       47 79 -103 -29 -61 26 38 11 -25 65 -27 -33 -37 22 40 66
0000b0 08 fa db 18 1e c3 04 ea d5 b5 e5 f8 13 18 29 f2
       8 -6 -37 24 30 -61 4 -22 -43 -75 -27 -8 19 24 41 -14
0000c0 d2 ec 07 33 26 df e0 29 25 0a 5c 23 b2 db fe f3
       -46 -20 7 51 38 -33 -32 41 37 10 92 35 -78 -37 -2 -13
0000d0 2f 7f b9 07 dc 02 fa 02 f5 27 03 25 0c 1d 0f 3c
       47 127 -71 7 -36 2 -6 2 -11 39 3 37 12 29 15 60
0000e0 a9 fa d3 14 e0 d4 cf ca b6 94 d4 e2 ee 1b c2 ea
       -87 -6 -45 20 -32 -44 -49 -54 -74 -108 -44 -30 -18 27 -62 -22
0000f0 f5 d7 11 43 0e 11 ec e5 33 3b 28 1b fc de 07 f3
       -11 -41 17 67 14 17 -20 -27 51 59 40 27 -4 -34 7 -13

model/conv2d_5/Conv2D i1 [16, 3, 3, 16]
000000 df 17 1f bc 56 dd 04 ae 28 0e 38 03 59 29 e4 f9
       -33 23 31 -68 86 -35 4 -82 40 14 56 3 89 41 -28 -7
000010 14 c7 f9 25 03 3b 00 d4 14 fa e4 27 f7 e7 6a 08
       20 -57 -7 37 3 59 0 -44 20 -6 -28 39 -9 -25 106 8
000020 2d ed d4 5e d7 14 eb d1 29 5b fc 21 ec 1f 20 33
       45 -19 -44 94 -41 20 -21 -47 41 91 -4 33 -20 31 32 51
000030 0b 9f 53 46 e5 3c f9 f5 31 1f fe 0e 15 18 1c 33
       11 -97 83 70 -27 60 -7 -11 49 31 -2 14 21 24 28 51
000040 ee fc 23 3e 1d f4 5e cb 52 d9 25 ac ae 1b ea db
       -18 -4 35 62 29 -12 94 -53 82 -39 37 -84 -82 27 -22 -37
000050 df 11 09 28 3f 02 3b d5 79 36 0b 3a 08 18 27 1b
       -33 17 9 40 63 2 59 -43 121 54 11 58 8 24 39 27
000060 32 eb 02 2f ff 24 e0 10 3b 2d fe 37 f1 eb 7f 40
       50 -21 2 47 -1 36 -32 16 59 45 -2 55 -15 -21 127 64
000070 df 07 06 c2 09 f4 6d d6 4e f3 ea d1 be 1e 0f 25
       -33 7 6 -62 9 -12 109 -42 78 -13 -22 -47 -66 30 15 37
000080 10 49 61 17 21 ec 61 c1 2a 32 fd 14 fc fb 1d 33
       16 73 97 23 33 -20 97 -63 42 50 -3 20 -4 -5 29 51
000090 ba 21 1b ea a8 fd 05 28 2c c4 03 9d 2f 0f b3 0a
       -70 33 27 -22 -88 -3 5 40 44 -60 3 -99 47 15 -77 10
0000a0 f0 d2 d3 eb b4 60 bd ad 1a e6 cf cf c6 1b ef d7
       -16 -46 -45 -21 -76 96 -67 -83 26 -26 -49 -49 -58 27 -17 -41
0000b0 db e9 03 12 dd eb 14 b4 ef 1f 03 1c ec ea df 0a
       -37 -23 3 18 -35 -21 20 -76 -17 31 3 28 -20 -22 -33 10
0000c0 ec dc bb f4 d8 2b 10 fd e4 25 fe cc 00 10 1c f2
       -20 -36 -69 -12 -40 43 16 -3 -28 37 -2 -52 0 16 28 -14
0000d0 02 a3 e9 d7 3c fd ec ef bd ed e7 12 f5 18 d7 05
       2 -93 -23 -41 60 -3 -20 -17 -67 -19 -25 18 -11 24 -41 5
0000e0 fb 0c 17 ec e0 fe f7 1d e2 3e e9 1e 23 eb cf 19
       -5 12 23 -20 -32 -2 -9 29 -30 62 -23 30 35 -21 -49 25
0000f0 d7 ad e0 f5 f1 32 c2 0b f3 0d fe e8 81 1d 20 e1
       -41 -83 -32 -11 -15 50 -62 11 -13 13 -2 -24 -127 29 32 -31

model/conv2d_4/Conv2D i1 [16, 1, 1, 8]
000000 7f d0 29 83 d6 30 d4 19 a7 c1 f5 81 e5 ed db c6
       127 -48 41 -125 -42 48 -44 25 -89 -63 -11 -127 -27 -19 -37 -58
000010 a2 a7 2b 76 bf 3f 81 68 5b 30 da 1f 02 81 c2 60
       -94 -89 43 118 -65 63 -127 104 91 48 -38 31 2 -127 -62 96
000020 7f 12 42 c1 ea c2 c0 b2 86 41 d7 dc 7f 2d 04 07
       127 18 66 -63 -22 -62 -64 -78 -122 65 -41 -36 127 45 4 7
000030 ba d5 cd 3c ec e6 7f 0b 3f c9 da cc f6 8b 42 7f
       -70 -43 -51 60 -20 -26 127 11 63 -55 -38 -52 -10 -117 66 127
000040 dc d7 0b 62 f8 2a 81 e2 bc 2a 81 57 d9 26 44 f6
       -36 -41 11 98 -8 42 -127 -30 -68 42 -127 87 -39 38 68 -10
000050 d4 d0 dd de b4 b1 a6 7f 4a 08 d1 81 cc 05 2d 5d
       -44 -48 -35 -34 -76 -79 -90 127 74 8 -47 -127 -52 5 45 93
000060 27 81 69 17 50 a1 83 2d 9c 41 9d 7f cc d3 f0 63
       39 -127 105 23 80 -95 -125 45 -100 65 -99 127 -52 -45 -16 99
000070 8d 38 d3 2a ed 7f f1 ef b7 29 11 97 bf 7f 26 9c
       -115 56 -45 42 -19 127 -15 -17 -73 41 17 -105 -65 127 38 -100

model/conv2d_3/Conv2D i1 [16, 3, 3, 16]
000000 e5 c6 df 19 55 bb 1d 32 b8 f1 cf 0b 0e ed 4d 33
       -27 -58 -33 25 85 -69 29 50 -72 -15 -49 11 14 -19 77 51
000010 3c d4 df f5 27 e6 01 14 02 1e 1c 9a 1f 5d 44 4a
       60 -44 -33 -11 39 -26 1 20 2 30 28 -102 31 93 68 74
000020 3b af f7 fa b5 1a e2 ff ef c2 fe 0c b8 ff d7 ca
       59 -81 -9 -6 -75 26 -30 -1 -17 -62 -2 12 -72 -1 -41 -54
000030 6b f7 35 2f 29 eb 21 24 0b 1a 0d d4 08 44 f8 0b
       107 -9 53 47 41 -21 33 36 11 26 13 -44 8 68 -8 11
000040 a7 bb 1f 14 61 fc 5d b8 18 07 03 21 36 b4 24 51
       -89 -69 31 20 97 -4 93 -72 24 7 3 33 54 -76 36 81
000050 dd 24 5a 42 f7 69 19 51 ff b6 1b 66 c7 07 f0 33
       -35 36 90 66 -9 105 25 81 -1 -74 27 102 -57 7 -16 51
000060 f3 ee 32 c7 b7 70 e3 bd 51 f7 a9 19 94 e4 00 c7
       -13 -18 50 -57 -73 112 -29 -67 81 -9 -87 25 -108 -28 0 -57
000070 0c 0e 81 1a 50 43 4d 1a dd bb 07 51 54 e9 27 1a
       12 14 -127 26 80 67 77 26 -35 -69 7 81 84 -23 39 26
000080 13 29 52 0e c4 b8 01 33 29 f7 54 29 0e fd c9 ed
       19 41 82 14 -60 -72 1 51 41 -9 84 41 14 -3 -55 -19
000090 2a 02 21 49 29 da 14 3c 12 1e 2c f4 e1 eb e0 f5
       42 2 33 73 41 -38 20 60 18 30 44 -12 -31 -21 -32 -11
0000a0 07 ed fd e3 3e 1c 19 1f d3 0c 1b 31 1c 22 0e 24
       7 -19 -3 -29 62 28 25 31 -45 12 27 49 28 34 14 36
0000b0 e7 fb e4 3e d4 06 15 32 10 fd 1b 07 2d 25 2a 0a
       -25 -5 -28 62 -44 6 21 50 16 -3 27 7 45 37 42 10
0000c0 d6 de 19 4e 04 ff 3e 09 21 08 d9 09 0f df eb 17
       -42 -34 25 78 4 -1 62 9 33 8 -39 9 15 -33 -21 23
0000d0 01 1c bb e6 7f fe 26 56 f3 48 28 37 7f e4 eb f1
       1 28 -69 -26 127 -2 38 86 -13 72 40 55 127 -28 -21 -15
0000e0 e9 46 f3 ff a7 0b 13 12 c6 01 c9 10 09 0b 18 1e
       -23 70 -13 -1 -89 11 19 18 -58 1 -55 16 9 11 24 30
0000f0 00 cb 07 14 c2 fa 19 ed 25 05 0a 25 f7 b5 cf 0f
       0 -53 7 20 -62 -6 25 -19 37 5 10 37 -9 -75 -49 15

model/conv2d_2/Conv2D i1 [16, 3, 3, 8]
000000 fd ee bd 08 be 15 04 cb e5 c1 34 d0 da e1 3e 25
       -3 -18 -67 8 -66 21 4 -53 -27 -63 52 -48 -38 -31 62 37
000010 fe 19 c3 ce 08 17 44 2c 2b 16 ee f6 f0 fb 24 eb
       -2 25 -61 -50 8 23 68 44 43 22 -18 -10 -16 -5 36 -21
000020 eb ab 70 1f b4 eb e5 7f f9 16 ee fb cb 09 40 24
       -21 -85 112 31 -76 -21 -27 127 -7 22 -18 -5 -53 9 64 36
000030 2c 07 ff 20 28 eb 0d 10 ca ef 4b 24 d5 16 1c 54
       44 7 -1 32 40 -21 13 16 -54 -17 75 36 -43 22 28 84
000040 f4 da 43 e3 e8 cc 0c eb e9 fe e5 c8 d5 2e f6 d6
       -12 -38 67 -29 -24 -52 12 -21 -23 -2 -27 -56 -43 46 -10 -42
000050 30 7f 41 34 4f 38 1e f7 02 f4 27 13 e2 eb 1c 05
       48 127 65 52 79 56 30 -9 2 -12 39 19 -30 -21 28 5
000060 e8 b1 3f ee e4 c6 f8 de fe 09 49 f4 ec dd ee 40
       -24 -79 63 -18 -28 -58 -8 -34 -2 9 73 -12 -20 -35 -18 64
000070 37 2c fe ef 09 5c f5 dc 12 01 10 1b 10 2c 11 ef
       55 44 -2 -17 9 92 -11 -36 18 1 16 27 16 44 17 -17
000080 a5 c5 35 c4 bc ba c2 fc 06 32 c4 11 1c f3 19 d5
       -91 -59 53 -60 -68 -70 -62 -4 6 50 -60 17 28 -13 25 -43
000090 f4 f7 2c ad f6 ea 0a d5 3a 15 3c 72 be 32 cf 7f
       -12 -9 44 -83 -10 -22 10 -43 58 21 60 114 -66 50 -49 127
0000a0 f2 04 f4 d9 e2 11 24 9f 06 dd 14 14 2a 15 f8 e0
       -14 4 -12 -39 -30 17 36 -97 6 -35 20 20 42 21 -8 -32
0000b0 4d 49 28 46 d5 44 ec 41 f6 d8 04 ad 0f 04 26 c3
       77 73 40 70 -43 68 -20 65 -10 -40 4 -83 15 4 38 -61
0000c0 02 fa ed ec d7 24 20 09 ed 06 01 26 e5 e5 ed 0e
       2 -6 -19 -20 -41 36 32 9 -19 6 1 38 -27 -27 -19 14
0000d0 c4 e0 1c bb d9 07 ee fd ae 2d dd f6 d6 dc f1 b1
       -60 -32 28 -69 -39 7 -18 -3 -82 45 -35 -10 -42 -36 -15 -79
0000e0 0d 0f 29 de 1c db ef 0e aa ec f2 fe e1 cb f6 51
       13 15 41 -34 28 -37 -17 14 -86 -20 -14 -2 -31 -53 -10 81
0000f0 b0 f3 dd c3 a6 c0 e0 c0 c4 27 32 d5 d0 9d cf fc
       -80 -13 -35 -61 -90 -64 -32 -64 -60 39 50 -43 -48 -99 -49 -4

model/conv2d_1/Conv2D i1 [8, 3, 3, 8]
000000 3e d4 d1 03 33 3a 31 35 30 29 f6 c7 c9 0e d7 c2
       62 -44 -47 3 51 58 49 53 48 41 -10 -57 -55 14 -41 -62
000010 c9 f6 c2 92 a9 b0 0f ff fb 32 df e4 09 d0 eb c9
       -55 -10 -62 -110 -87 -80 15 -1 -5 50 -33 -28 9 -48 -21 -55
000020 06 30 50 00 2f 04 b1 e9 c8 07 d6 1c c9 95 14 01
       6 48 80 0 47 4 -79 -23 -56 7 -42 28 -55 -107 20 1
000030 e9 20 14 07 c0 d5 25 cf 25 0d 16 ff 2d 1a fb c7
       -23 32 20 7 -64 -43 37 -49 37 13 22 -1 45 26 -5 -57
000040 c2 12 c5 a0 81 a8 ed eb 28 18 21 10 fd f6 47 21
       -62 18 -59 -96 -127 -88 -19 -21 40 24 33 16 -3 -10 71 33
000050 13 11 ef fd de ef fc 1e 03 01 09 06 ce a8 00 34
       19 17 -17 -3 -34 -17 -4 30 3 1 9 6 -50 -88 0 52
000060 01 ed 00 0b 34 d6 07 a3 fa 1c f2 f1 f3 b6 48 fd
       1 -19 0 11 52 -42 7 -93 -6 28 -14 -15 -13 -74 72 -3
000070 1e 16 0f e5 e0 8d 0f 34 01 05 f1 db 21 02 04 81
       30 22 15 -27 -32 -115 15 52 1 5 -15 -37 33 2 4 -127
000080 f6 f7 b9 f1 e1 dc 3b 0f 0d 14 48 92 fd ad f5 10
       -10 -9 -71 -15 -31 -36 59 15 13 20 72 -110 -3 -83 -11 16
000090 16 a9 0c 37 84 14 f4 04 ac e7 00 09 fd 30 16 03
       22 -87 12 55 -124 20 -12 4 -84 -25 0 9 -3 48 22 3
0000a0 2d da 0e da f1 e5 26 0f 33 cc 28 34 e0 03 ac 42
       45 -38 14 -38 -15 -27 38 15 51 -52 40 52 -32 3 -84 66
0000b0 d9 02 ce 04 06 0e 28 09 06 c5 14 9f 0f b5 27 0f
       -39 2 -50 4 6 14 40 9 6 -59 20 -97 15 -75 39 15
0000c0 17 c3 76 12 e1 3b db 23 0e 2e e3 ef ff d8 16 00
       23 -61 118 18 -31 59 -37 35 14 46 -29 -17 -1 -40 22 0
0000d0 17 ef 3a bc 16 81 0d 0b 36 de 11 be 1d 52 ed 16
       23 -17 58 -68 22 -127 13 11 54 -34 17 -66 29 82 -19 22
0000e0 ff 09 fb ee f2 fb fa a0 11 bb a3 d7 8b e5 bf ef
       -1 9 -5 -18 -14 -5 -6 -96 17 -69 -93 -41 -117 -27 -65 -17
0000f0 14 db cb c4 e3 18 f6 f9 c5 ee c6 20 b4 d5 c4 e9
       20 -37 -53 -60 -29 24 -10 -7 -59 -18 -58 32 -76 -43 -60 -23

model/conv2d/Conv2D i1 [8, 3, 3, 1]
000000 32 62 27 57 7f 26 e6 c3 b1 e9 81 fd 22 d4 2d b0
       50 98 39 87 127 38 -26 -61 -79 -23 -127 -3 34 -44 45 -80
000010 07 4e fc 43 bb 2c e4 81 c4 36 89 47 81 d1 c1 f4
       7 78 -4 67 -69 44 -28 -127 -60 54 -119 71 -127 -47 -63 -12
000020 da 13 3e 48 e5 7f 2d e5 f5 19 4d 94 dc 60 12 09
       -38 19 62 72 -27 127 45 -27 -11 25 77 -108 -36 96 18 9
000030 7f 19 16 7a c8 b2 ff 43 5b f4 65 7f 27 dc 5b 7f
       127 25 22 122 -56 -78 -1 67 91 -12 101 127 39 -36 91 127
000040 b1 6c d2 23 49 b6 68 e0
       -79 108 -46 35 73 -74 104 -32
